…
a)Using my_evaluate_train16a_ds3_seg.py. Multiple inputs. Single LR 10-4. Concate both after flatten. After help from Shawan. Was able to do the training. Classification loss smaller than previous cases but still rises after 20 epochs. Store as evaluate_ts15_ds3_Class6_csegEF224kvel1.h5

b) Learning rate decay. After 20 epochs, reduced the LR. Then after 55, increase by half. Save as evaluate_ts15_ds3_Class6_csegEF224kvel2.h5

c)

Cos of custom cost, the velocity is too small. How about a training with only normal cost? save as evaluate_ts15_ds3_Class6_csegEF224kvel4.h5


Layer (type)                 Output Shape              Param #   
=================================================================
input_1 (InputLayer)         (None,15, 70, 160, 1)        0         
_________________________________________________________________
lambda_1 (Lambda)            (None,15, 70, 160, 1)        0         
_________________________________________________________________
conv2d_1 (Conv2D)            (None,15, 35, 80, 24)        624       
_________________________________________________________________
conv2d_2 (Conv2D)            (None,15, 18, 40, 36)        21636     
_________________________________________________________________
conv2d_3 (Conv2D)            (None,15, 9, 20, 48)         43248     
_________________________________________________________________
conv2d_4 (Conv2D)            (None,15, 5, 10, 64)         27712     
_________________________________________________________________
conv2d_5 (Conv2D)            (None,15, 3, 5, 64)          36928     
_________________________________________________________________
flatten_1 (Flatten)          (None,15, 960)               0         
_________________________________________________________________
dense_1 (Dense)              (None, 100)               96100     
_________________________________________________________________
dense_2 (Dense)              (None, 50)                5050      
_________________________________________________________________
dense_3 (Dense)              (None, 10)                510       
_________________________________________________________________
st (Dense)                   (None, 1)                 11        
=================================================================
Total params: 231,819
Trainable params: 231,819
Non-trainable params: 0

evaluate_ts15_ds3_Class5_conv1.hd5

Number of images: (100923, 15, 70, 160, 1)
Number of labels: (100923, 5)
Splitting data into training set and testing set....at Sun Oct 11 20:59:03 2020
Splitting data into training set and testing end....at Sun Oct 11 20:59:05 2020
…
time_distributed_2 (TimeDistrib (None, 15, 18, 40, 3 21636       time_distributed_1[0][0]         
__________________________________________________________________________________________________
time_distributed_3 (TimeDistrib (None, 15, 9, 20, 48 43248       time_distributed_2[0][0]         
__________________________________________________________________________________________________
time_distributed_4 (TimeDistrib (None, 15, 5, 10, 64 27712       time_distributed_3[0][0]         
__________________________________________________________________________________________________
time_distributed_5 (TimeDistrib (None, 15, 3, 5, 80) 46160       time_distributed_4[0][0]         
__________________________________________________________________________________________________
time_distributed_6 (TimeDistrib (None, 15, 2, 3, 96) 69216       time_distributed_5[0][0]         
__________________________________________________________________________________________________
time_distributed_7 (TimeDistrib (None, 15, 576)      0           time_distributed_6[0][0]         
__________________________________________________________________________________________________
lstm_1 (LSTM)                   (None, 15, 200)      621600      time_distributed_7[0][0]         
__________________________________________________________________________________________________
lstm_2 (LSTM)                   (None, 100)          120400      lstm_1[0][0]                     
__________________________________________________________________________________________________
lstm_3 (LSTM)                   (None, 100)          120400      lstm_1[0][0]                     
__________________________________________________________________________________________________
lstm_4 (LSTM)                   (None, 100)          120400      lstm_1[0][0]                     
__________________________________________________________________________________________________
dense_1 (Dense)                 (None, 100)          10100       lstm_2[0][0]                     
__________________________________________________________________________________________________
dense_2 (Dense)                 (None, 100)          10100       lstm_3[0][0]                     
__________________________________________________________________________________________________
dense_3 (Dense)                 (None, 100)          10100       lstm_4[0][0]                     
__________________________________________________________________________________________________
dense_4 (Dense)                 (None, 10)           1010        dense_1[0][0]                    
__________________________________________________________________________________________________
dense_5 (Dense)                 (None, 10)           1010        dense_2[0][0]                    
__________________________________________________________________________________________________
dense_6 (Dense)                 (None, 10)           1010        dense_3[0][0]                    
__________________________________________________________________________________________________
classification (Dense)          (None, 3)            33          dense_4[0][0]                    
__________________________________________________________________________________________________
velocity (Dense)                (None, 1)            11          dense_5[0][0]                    
__________________________________________________________________________________________________
st (Dense)                      (None, 1)            11          dense_6[0][0]                    
==================================================================================================
Total params: 1,224,781
Trainable params: 1,224,781
Non-trainable params: 0
___________________________


With no traffic - 
Drive for 1 hour and see how model responds.
With traffic -
drive for 1 hout and see how model responds.

Epoch training - 50

veloc
…
